hackmit2023-tim-ml-main/models/linreg.pt (torch, 26265 bytes, 4 tensors)

linear.0.weight f4 [8, 768]
000000 77 9b 19 bc 2e c7 8a 3b 18 29 40 bc 4e 0f 6e 3b
       -0.009375445 0.00423517 -0.0117285475 0.003632504
000010 ee f7 50 3c 45 23 8b bb 9a 18 5e 3b 13 b6 43 3b
       0.012754424 -0.004246148 0.0033889175 0.0029863163
000020 af 2a 70 3d b8 23 92 b9 5f f1 b6 bc ce 17 36 bd
       0.058634456 -0.00027873903 -0.022331892 -0.044456296
000030 87 4a ac bb 61 8d c4 3c 98 73 13 bc d2 d3 25 bb
       -0.005257908 0.023993196 -0.008999728 -0.0025303257
000040 72 04 e0 bc 81 5a e4 3c ae b2 9a bc 4f 76 e2 bb
       -0.02734587 0.027875187 -0.01888403 -0.006911076
000050 26 cd 5d bb 6c 9f 08 3b f6 83 63 3c 92 5d 34 bc
       -0.0033844202 0.0020846976 0.013886442 -0.011008637
000060 18 ed 3a bc 9d af 34 3c 55 ce f5 bb 40 9d 5b bc
       -0.011409067 0.011028198 -0.0075014033 -0.013404191
000070 1a 95 a7 3a 5c 6f 54 3d bb ec f7 bb 55 1f 17 3d
       0.0012785525 0.051864013 -0.0075660623 0.036895115
000080 a5 45 cf bb 8a 39 35 bc 11 39 4b b6 97 b2 0c 3d
       -0.006325441 -0.011061082 -3.0282574e-06 0.034350004
000090 8e b5 df 3a 23 39 1f bc d4 05 1e bb e1 4f b2 bb
       0.0017067657 -0.009718212 -0.002411236 -0.005441651
0000a0 61 2a ef 3c 75 7d e0 bb da a0 ce bc fa 1a 12 bd
       0.029195013 -0.006850893 -0.025223184 -0.035670258
0000b0 66 ae 34 bb 68 c5 bd 3c 96 8a b5 3c ab 02 2d bd
       -0.002756977 0.02316542 0.02216081 -0.042238872
0000c0 c5 c6 8a 3a 2e 5b 07 bd 65 19 93 3b 26 fb 0e 3c
       0.0010587802 -0.03304594 0.0044891112 0.008726871
0000d0 c4 a3 88 3c 1f 5f dd 3b 76 45 e8 ba 99 67 ec 3c
       0.016679652 0.006755724 -0.0017720896 0.028857993
0000e0 a9 8b 83 bc 6f 4f 37 3d a7 62 7b bc f7 bc ff 3b
       -0.016057806 0.04475349 -0.015343345 0.007804509
0000f0 ea 69 c1 ba 4e 7f ef 3c ae 69 88 3a e3 03 54 bc
       -0.0014756296 0.029235508 0.0010407472 -0.01294038
000100 a1 3e 03 3d a3 fb 04 bc f1 97 32 bc b7 bf 3a bc
       0.03204215 -0.0081166355 -0.0109004835 -0.011398247
000110 01 bd 82 3c 93 f1 e7 3b e8 1e c8 3c ba 4a 16 bc
       0.015959265 0.0070783584 0.0244288 -0.00917309
000120 1c a9 e3 ba 64 83 0b bc 4d aa b5 39 3e 38 4c bb
       -0.0017369124 -0.008515213 0.00034649894 -0.0031161453
000130 27 18 a3 3c 7d b9 2f bd 9c 06 76 bb fc dd 7c bb
       0.019908978 -0.042901505 -0.003754056 -0.0038584461
000140 72 04 9b bb 0b 60 01 bd 0e 59 96 bb dd e4 0c 3b
       -0.0047307545 -0.031585734 -0.004588253 0.0021498718
000150 a2 8d 6d 3c 90 3b 08 3b 1e f4 36 bb 9f 35 21 bc
       0.0144991 0.0020787455 -0.0027916501 -0.009839444
000160 18 23 cd 3c ca c9 a0 3c 64 0e bb ba 8f fd db 3b
       0.025041148 0.01962747 -0.0014271257 0.006713576
000170 ef b4 c6 bb fb 59 98 bc d2 47 d1 3c 4f e0 21 3b
       -0.0060640494 -0.018597594 0.025546942 0.0024700349
000180 ef 1c 41 bb 20 4f 1a ba bb e9 35 bc 7e 08 01 3d
       -0.0029466709 -0.00058864243 -0.011103089 0.03150224
000190 11 78 d2 3c e9 bf 9e bc 41 cf d3 3c d8 4f 92 3c
       0.025692018 -0.01937862 0.025855662 0.017860338
0001a0 cf 31 7e 3c 91 46 16 bd e9 ec b3 3c bc 1d 43 bc
       0.015514805 -0.03668839 0.021963554 -0.011908945
0001b0 31 1a c1 bb c7 fc 89 bc 29 8c da bb fe 21 d2 bb
       -0.005893015 -0.016844166 -0.0066695404 -0.0064127436
0001c0 18 7b 83 3c 30 b4 de bc d0 43 35 bb 29 7d c9 3b
       0.016049907 -0.02718553 -0.0027658828 0.0061489535
0001d0 de cb 1e bd 88 fd f6 3b ac 4b 3d bc 2b 28 8c ba
       -0.03876864 0.0075375475 -0.011553686 -0.0010693123
0001e0 9c bb ce 3c d6 a4 48 3b 21 68 81 3c f2 f2 49 bc
       0.025235943 0.0030615828 0.015796723 -0.012325989
0001f0 cb 15 0b bd 96 1d b8 bb cf 2f 80 3c f4 71 71 bc
       -0.03395633 -0.0056187613 0.015647797 -0.014736641
000200 f0 1d a9 bc 2e 82 cb bc d9 1e a8 3c 31 1d b7 3a
       -0.020644158 -0.024842348 0.020522522 0.0013970492
000210 4c f3 08 bd 65 f2 28 3d 3a 56 3c 3c 89 61 02 bd
       -0.03343515 0.04124679 0.011495167 -0.031831298
000220 08 16 54 3c 3a d7 ec bb eb fc 31 3d a7 e5 02 bc
       0.012944706 -0.0072278054 0.043454092 -0.007989324
000230 ca 54 54 39 a9 fa b6 bc c7 3c 17 3c 17 b0 ab 3c
       0.00020249482 -0.022336321 0.009230799 0.02095799
000240 22 53 72 bb 46 3f 3c bb 79 b6 0e bb 98 86 fa bc
       -0.003697582 -0.0028724237 -0.0021776243 -0.030581757
000250 98 1e 54 3a ab fd 4a bc fa 1e 9b 3b 72 aa a9 bb
       0.0008091717 -0.012389581 0.0047339173 -0.0051777894
000260 48 da 11 3d e3 43 1e 3c 7c 83 8a 3b ac 8b 9d bb
       0.03560856 0.00965974 0.0042271 -0.00480791
000270 09 bb 96 3c 41 59 b8 3b 21 c6 e6 bc ec a7 6f bc
       0.018399732 0.0056258743 -0.028170647 -0.014627438
000280 d1 d1 c4 bb b5 3d 94 bc d0 15 0e 3c de 81 84 bb
       -0.0060064574 -0.01809583 0.008672193 -0.0040438017
000290 32 20 33 3d 74 3f 83 3b ae 1f a0 bc 8a 37 74 3b
       0.043731876 0.004005367 -0.019546356 0.003726455
0002a0 4c 3c 17 3c 4b 05 2d 3d e8 95 99 bc 7d 54 b2 3c
       0.0092306845 0.042241376 -0.018748239 0.021768803
0002b0 43 12 cc 3c f3 e0 56 bc d9 83 b4 bc 60 eb 98 bc
       0.024911052 -0.0131151555 -0.022035526 -0.018666923
0002c0 22 56 58 3c 76 16 cc 3c 32 a9 87 3a 1a 9d e1 bb
       0.013204129 0.024913054 0.0010350107 -0.006885183
0002d0 0b b9 14 3d 25 9b 48 3c e7 be 8c bc e0 d8 41 3d
       0.036309283 0.012244021 -0.017180873 0.04732597
0002e0 85 dc 8d 3d 43 df 51 3c 78 29 74 bc a9 03 96 3b
       0.069268264 0.012809577 -0.014902465 0.004578073
0002f0 1d b7 67 3c 7e d2 d6 bc fc e4 47 3c 4d 5c d1 3c
       0.014142779 -0.026223417 0.01220059 0.025556708
000300 4d ae 35 bc 25 11 55 3b 06 cb 42 bb c8 15 57 3c
       -0.01108892 0.003251144 -0.0029723062 0.013127752
000310 cd 79 c7 ba 80 66 8d 3b 6a 6a b1 bb ee b5 3b bd
       -0.0015218795 0.0043151975 -0.005414297 -0.0458278
000320 ce 86 e0 3c 00 e3 9a bc 52 d5 a2 bc 28 28 ed 3c
       0.02740803 -0.01890707 -0.01987711 0.028949812
000330 ed 18 a0 bb db 49 d8 bc b6 6a 86 bb 60 8f 99 3c
       -0.004885784 -0.026402405 -0.0041020764 0.018745124
000340 41 fe 92 bc d9 4e dd bc 75 16 f7 3c 09 07 8e bc
       -0.017943503 -0.027015137 0.030162076 -0.017337339
000350 11 9a a8 bc d0 6c b0 bb 5d 48 2b bc 7b 26 c1 bc
       -0.020581277 -0.005384065 -0.0104542645 -0.02357792
000360 d7 73 6c bc 94 ea 6c bc 44 bd 70 3d 39 cd 9e bc
       -0.014431915 -0.014460225 0.058774248 -0.019384967
000370 46 65 e4 bb a7 05 91 3b 1d 40 0c 3c ff e4 96 3c
       -0.0069700805 0.0044257226 0.008560208 0.01841974
000380 8d 46 2a bd cb 16 f2 3c 76 1d 5f 3b da 41 09 bc
       -0.04157119 0.029551884 0.003404466 -0.008377517
000390 4b 10 2a bc b5 13 76 3c 10 fc 4d bc c2 87 0d bc
       -0.010379861 0.015019347 -0.012572303 -0.008638324
0003a0 1a 76 80 3c 81 ab 99 3c 4c 15 3e 3c 71 0e 9d bc
       0.015681315 0.018758537 0.011601757 -0.019171925
0003b0 9f 7f dc bc 81 9a ac bc 03 37 ef bc b2 3b 3a 3d
       -0.026916323 -0.021069767 -0.029201036 0.045467086
0003c0 a6 a0 bd bc d7 97 03 bd d2 06 8f bb 76 86 36 bc
       -0.023147892 -0.032127228 -0.0043648267 -0.011140456
0003d0 c4 15 9e 3c ad 6b 3c 3d 34 0e 94 3c 5f 1e 15 3c
       0.019297488 0.046001125 0.018073179 0.009101479
0003e0 0d 91 53 3b 30 00 20 bc b8 25 d8 bc 4c da ba bb
       0.0032282502 -0.00976567 -0.026385173 -0.0057022925
0003f0 ba 85 f4 bc 1e d9 68 bc f7 20 6c bc a0 43 17 3d
       -0.029848922 -0.014211921 -0.014412156 0.036929727

linear.0.bias f4 [8]
000000 e2 42 8a bf c7 a5 94 bf 7e a1 2d bf a0 5b 9b bf
       -1.0801661 -1.1613091 -0.6782454 -1.2137337
000010 d1 62 4e c0 49 ea 88 bf 96 6e 95 be db b9 4a c0
       -3.2247813 -1.0696498 -0.29185933 -3.1675937

linear.2.weight f4 [3, 8]
000000 4d c1 a6 bd 91 c9 a4 bf 76 53 b6 3e af a9 de 3d
       -0.08142338 -1.2874013 0.3561055 0.10872208
000010 4b 78 1c bf 96 b1 26 bf b2 36 15 3f b7 48 59 3f
       -0.6112105 -0.65114725 0.58286583 0.8487658
000020 9f 5e 8d 3e 39 24 5a bf c1 cf 8d bd 47 a2 8a bc
       0.27611253 -0.8521152 -0.069243915 -0.016923083
000030 88 1b 34 3f bc 2d 52 be 6b 75 c1 bc 33 e3 d4 3f
       0.7035451 -0.20525259 -0.02361556 1.6631836
000040 3d d4 33 bb 94 7f 8d bf f2 77 ad 3d 53 55 8c bf
       -0.0027439736 -1.1054559 0.084701434 -1.0963539
000050 28 25 4a be c5 61 ac be ec 89 cc 3e 4b 41 15 bf
       -0.19740736 -0.33668342 0.39948976 -0.58302754

linear.2.bias f4 [3]
000000 0b 15 23 be bc ac 8f bd 6f 25 89 be
       -0.15925996 -0.07015368 -0.26786372
